best_kdd_100_model.pt (torch, 28982 bytes, 6 tensors)

net.0.weight f4 [64, 31]
0	0x3ccb922f	0.02484998
1	0xbe940502	-0.2891007
2	0xbd0d7564	-0.03453578
3	0xc0838e1c	-4.1110973
4	0xbf43277d	-0.7623213
5	0x3aec99bf	0.0018051191
6	0x3fe6ade5	1.8021818
7	0x3e9782f3	0.29592094
8	0xc0ce07f5	-6.4384713
9	0xbd6de219	-0.05807695
10	0xbe5ca58d	-0.21547528
11	0xc0e70d86	-7.220401
12	0x3e0f3f87	0.13989078
13	0x3e18a54c	0.14906806
14	0xbe109350	-0.14118695
15	0xbea2d6f0	-0.3180461
16	0x3f45e061	0.772955
17	0x3de73a44	0.1129041
18	0xbc4edf07	-0.012626416
19	0x3ed4c8d1	0.4155946
20	0x3d0bca44	0.034128442
21	0x3df13d89	0.11779315
22	0xbdb9f3ce	-0.09079705
23	0x3e0b291e	0.13589904
24	0xbdac6673	-0.08417978
25	0x3cda473e	0.026645299
26	0x3e2b83f8	0.16749561
27	0x3d240fb3	0.040054034
28	0xbfb91e7c	-1.4462428
29	0xbe2c5812	-0.16830471
30	0xbe74a8a5	-0.23892458
31	0xbf4b406f	-0.7939519
32	0x3d2a2326	0.041537426
33	0x3e8fd9b7	0.2809579
34	0x3f125a50	0.57169056
35	0x3daaf921	0.08348299
36	0x3e2a560a	0.16634384
37	0xbf41adea	-0.75655997
38	0x3ecbb6d1	0.39787915
39	0xbf717126	-0.94313276
40	0xbee99aa5	-0.45625797
41	0x3d0a5a8a	0.03377775
42	0x3fc7afec	1.5600562
43	0xbe94d69f	-0.29069993
44	0x3effc3c6	0.4995405
45	0x3ef0be88	0.47020364
46	0x3e94ff67	0.29101107
47	0x3f5698a4	0.8382666
48	0xbc2ba881	-0.010477186
49	0xbcb16a97	-0.021657271
50	0xc02b59e6	-2.677362
51	0xc04eac43	-3.229264
52	0xbf176cc8	-0.5915036
53	0xbdec3961	-0.11534382
54	0x3b701016	0.0036630682
55	0xbd003c30	-0.0313074
56	0x3db31be9	0.08745558
57	0x3e2035a5	0.15645464
58	0x3dfc2743	0.12312176
59	0xbfab3c89	-1.3377849
60	0xbe9dfab0	-0.30855322
61	0x3d8059bf	0.06267118
62	0xbe49144b	-0.19636647
63	0xbf8ded95	-1.1088129
64	0xbf0a27ca	-0.53966963
65	0x3ba1448b	0.004921501
66	0x3e1b2435	0.1515053
67	0xbe0008a2	-0.12503293
68	0xbf852b1d	-1.0403782
69	0xbcbbfab8	-0.0229467
70	0x3e54ae96	0.20769724
71	0x3de9625c	0.11395714
72	0xbf23b01e	-0.6394061
73	0xbe21fd4c	-0.15819281
74	0x3e06b0ba	0.13153353
75	0xbca7e1ee	-0.020493474
76	0x3cd4d586	0.025980722
77	0xbe0531a4	-0.13007218
78	0xbd831d40	-0.06402063
79	0x3dcbc3f4	0.099494845
80	0xbe3e1c09	-0.18565382
81	0x3f7fd289	0.99930626
82	0x3f659239	0.89676243
83	0xbed8e592	-0.42362648
84	0xbf16d59d	-0.589197
85	0x3d8a7cdc	0.06762096
86	0x3d88b30f	0.06674778
87	0x3f324bd7	0.6964697
88	0xc0858245	-4.172152
89	0x3e8dade7	0.2767174
90	0xbf3c64e8	-0.7359147
91	0x3e6f1321	0.23347141
92	0x3cda2e15	0.026633302
93	0xc06650e7	-3.598688
94	0x3eaeb383	0.34121332
95	0xbda0b1bd	-0.07846401
96	0xbeb80cc2	-0.35947233
97	0xbefcade0	-0.49351406
98	0xbc6afd90	-0.014342681
99	0xbb42f99b	-0.0029750827
100	0xbdca2f0d	-0.098722555
101	0xbf342add	-0.70377904
102	0xbdf0e349	-0.11762101
103	0xbea424d1	-0.3205934
104	0xbd0f718b	-0.035020392
105	0x3d0f1d14	0.03493984
106	0xbe19ef07	-0.15032588
107	0x3c89df08	0.016829982
108	0x3d819e1e	0.063289866
109	0x3aa82004	0.0012826924
110	0x3e113e7a	0.14183989
111	0xbdcae166	-0.099062726
112	0xbdf07c46	-0.11742453
113	0x3f72d7d6	0.9486059
114	0x3e450475	0.19239981
115	0x3ee4c7fc	0.44683826
116	0xbf017eec	-0.5058429
117	0xbf258579	-0.6465679
118	0xbf0786c2	-0.5294
119	0x3e300039	0.17187585
120	0xbe8c8c03	-0.2745057
121	0x3f1c25d8	0.60995245
122	0xbeb7ba7d	-0.35884467
123	0x3ea93f7d	0.3305625
124	0xbf565599	-0.8372436
125	0xbec9ac32	-0.39389187
126	0x3d6d7419	0.057972047
127	0x3f98e095	1.1943537
128	0xbdf2cbe7	-0.118552975
129	0x3daa017b	0.083010636
130	0x3fb129ec	1.3840919
131	0xbd480390	-0.048831522
132	0xbf329af9	-0.6976772
133	0xbec7791d	-0.3895959
134	0xbf2d8bee	-0.6779164
135	0x3db865cb	0.090037905
136	0xbd295dfc	-0.041349396
137	0xbe8756ea	-0.26433498
138	0xbe839900	-0.25702667
139	0xbba4594c	-0.005015528
140	0xbe3e3021	-0.18573047
141	0xbe210da1	-0.15727855
142	0xbe26d87b	-0.16293518
143	0x3f3c49ca	0.73550093
144	0x3f40ff60	0.7538967
145	0x3f00dacf	0.50333875
146	0x3f0c41b9	0.54787785
147	0xbe29e8ca	-0.16592708
148	0xbe2b1eb2	-0.16710928
149	0xbf1b1fa5	-0.6059516
150	0x3f02b96c	0.5106418
151	0xbd9168d8	-0.071000755
152	0xbd8edebe	-0.069760785
153	0x3ec9a619	0.39384535
154	0xbfd69408	-1.6763926
155	0x3e3edd4b	0.18639104
156	0x3d534ce2	0.051586993
157	0xbd298001	-0.04138184
158	0xc08f142c	-4.4712124
159	0xbd2cbd66	-0.042172812
160	0x3d1bc62d	0.038030792
161	0x3f93fc20	1.1561317
162	0x3e5616b8	0.20907104
163	0xc1023506	-8.137945
164	0x3ecd9f84	0.40160763
165	0x3e425251	0.18976714
166	0xc0e06300	-7.012085
167	0xbec51748	-0.38494325
168	0x3e1acaf2	0.1511648
169	0x3f893e8a	1.072221
170	0x3f0248c3	0.50892276
171	0x3fdf5605	1.7448126
172	0x3df720c3	0.12066796
173	0xbe41e344	-0.18934351
174	0x3e12ad40	0.14323902
175	0x3ec89cdb	0.3918217
176	0x3dad932c	0.084753364
177	0xbe194bab	-0.14970271
178	0x3b365d5c	0.0027826643
179	0xbdee96d9	-0.11649866
180	0x3b1bf4e7	0.0023797096
181	0x3d26e931	0.040749732
182	0xbcb4c24a	-0.0220653
183	0xbcb74ba1	-0.02237493
184	0xbe6a0355	-0.22852834
185	0x3ea4835b	0.32131466
186	0x3fce8397	1.6133908
187	0x3e028a12	0.12747982
188	0xbfa1800f	-1.2617205
189	0xbf248307	-0.6426243
190	0x3e32e606	0.1747056
191	0xbc9e902b	-0.019355854
192	0x3f96ef07	1.1791695
193	0xbe04c967	-0.12967454
194	0xbede9b30	-0.43477774
195	0x3f21f5b5	0.63265544
196	0xbec64296	-0.38722676
197	0x3d9b520c	0.075840086
198	0xbebadaab	-0.36494955
199	0x3d4ad57b	0.049519997
200	0x3e42b4b0	0.1901424
201	0x3ed50833	0.41607818
202	0xbd6ea9d7	-0.05826744
203	0xbcf43dc8	-0.029814616
204	0x3e287dbd	0.16454215
205	0xbed1b218	-0.40956187
206	0xbeb02962	-0.34406573
207	0x3ec695d6	0.3878619
208	0xbf44ff93	-0.76952475
209	0x3e10564b	0.14095418
210	0x3e862fab	0.26208243
211	0x3e67e5de	0.22646281
212	0xbd44914c	-0.04799013
213	0xbcf4d0c1	-0.029884698
214	0x3f211674	0.62924886
215	0xbe93261d	-0.28740016
216	0xbd958c2e	-0.07302128
217	0x3ff467ce	1.9094179
218	0xbe7b2977	-0.24527536
219	0xbf521dd8	-0.8207679
220	0xc0363735	-2.8471196
221	0xbec3f3cb	-0.38271937
222	0x3dc5c97d	0.096575715
223	0x3d11247a	0.035435177
224	0x3dc15218	0.09439486
225	0xc1019fdd	-8.101529
226	0x3f142d13	0.5788128
227	0x3d96cc4a	0.07363184
228	0xc11d1950	-9.81868
229	0x3c538913	0.012911099
230	0x3f479def	0.7797536
231	0xbe46cd68	-0.19414294
232	0xbe0315be	-0.12801263
233	0x3f5be6a7	0.8589882
234	0x3bf4fbf1	0.007476323
235	0xbee50459	-0.4472988
236	0xbcf538af	-0.029934255
237	0x3ef433ec	0.47695863
238	0x3e244d44	0.160451
239	0xbfa8cb66	-1.3187072
240	0x3df87588	0.12131792
241	0x3e8866e6	0.26641005
242	0xbd5a1cb7	-0.05325004
243	0x3df57084	0.11984351
244	0xbd8769aa	-0.06611951
245	0x3db25c9b	0.08709069
246	0xbdf134e3	-0.117776655
247	0xbf12f9e4	-0.5741255
248	0x3caec111	0.021332296
249	0xbec0abd6	-0.376311
250	0xbe839493	-0.2569929
251	0x3de9c693	0.11414828
252	0xbb121623	-0.0022291027
253	0x3e5361be	0.20642754
254	0x3d43709a	0.047714807
255	0xbe064f42	-0.13116172

net.0.bias f4 [64]
0	0x3cbe07ed	0.023197139
1	0x3e070c3c	0.13188261
2	0xbded114f	-0.11575567
3	0xbe50b8ae	-0.2038295
4	0xbf0a05e4	-0.5391524
5	0xbdefb44b	-0.1170431
6	0xbe150099	-0.14551009
7	0x3dcfeb99	0.101523586
8	0xbedab98d	-0.4271969
9	0xbd17ab42	-0.03702856
10	0xbf333a19	-0.70010525
11	0xbdf6641b	-0.12030812
12	0xbe97bcb3	-0.29636154
13	0xbdf886f0	-0.12135112
14	0xbf20151a	-0.625322
15	0x3daa9564	0.08329275
16	0xbef5ea09	-0.48030117
17	0xbe99006e	-0.2988314
18	0xbe394768	-0.18093646
19	0xbe9cdf41	-0.3063908
20	0xbf055439	-0.5208164
21	0xbeebd650	-0.46061945
22	0xbc3bdcec	-0.011466246
23	0xbe37a051	-0.1793225
24	0xbe842d03	-0.2581559
25	0x3cfab85c	0.030605488
26	0xbe3fa7a5	-0.18716295
27	0xbea86435	-0.32888952
28	0xbeaf3d95	-0.3422667
29	0x3e918de7	0.28428575
30	0xbdc7a1ed	-0.09747682
31	0x3c43603d	0.0119248
32	0xbe19581c	-0.14975017
33	0xbe3f9f48	-0.18713105
34	0xbe988be0	-0.29794216
35	0xbe5e6acd	-0.21720429
36	0xbe91f8ab	-0.2851003
37	0xbef8959b	-0.4855164
38	0xbe6d429b	-0.23169939
39	0x3ddceac0	0.107869625
40	0xbde9e154	-0.11419931
41	0xbdd3ca4e	-0.10341321
42	0x3d59d516	0.05318173
43	0xbdf5f124	-0.120088845
44	0x3d738880	0.05945635
45	0xbe27ab50	-0.16373944
46	0xbea3b46c	-0.31973588
47	0xbe85b2f2	-0.26113087
48	0xbd89ed25	-0.06734685
49	0xbe82fe5c	-0.25584686
50	0x3e4a8be8	0.19779932
51	0xbe427530	-0.18990016
52	0x3ca84363	0.020539945
53	0xbe0b11a6	-0.13580951
54	0xbcbf492e	-0.023350324
55	0xbcdcf392	-0.026971612
56	0xbd1eaaeb	-0.03873722
57	0xbda6ef00	-0.081510544
58	0xbf2bddad	-0.67135125
59	0xbd34da05	-0.044153232
60	0xbd9c3607	-0.076274924
61	0xbd77327e	-0.060350887
62	0xbe24c53a	-0.16090861
63	0xbec9c802	-0.39410406

net.3.weight f4 [64, 64]
0	0x3f09ca64	0.5382445
1	0xbfc0794a	-1.5037014
2	0x3de981f8	0.11401743
3	0x3de23f74	0.11047259
4	0x3e53d790	0.206877
5	0x3f1c9e26	0.61178815
6	0x3f63d245	0.8899272
7	0x3f73becd	0.95213014
8	0x3f0b60d1	0.54444605
9	0x3e8e4a58	0.27791095
10	0xbe8e6472	-0.2781101
11	0xbcfc48d7	-0.030796451
12	0x3f24e321	0.6440907
13	0xbf997c6a	-1.1991093
14	0x3e0d2c2b	0.1378638
15	0x3e0472d5	0.1293443
16	0xbf548404	-0.8301394
17	0xbf3d7373	-0.74004287
18	0x3eed0c91	0.4629865
19	0x3ea9a0de	0.33130544
20	0xbdeca42b	-0.1155475
21	0x3e4504d0	0.19240117
22	0x3eb65cbd	0.3561763
23	0x3f842df5	1.0326525
24	0x3f01b195	0.50661594
25	0xbe52465a	-0.2053465
26	0x3eb0f767	0.34563753
27	0xbbb479db	-0.0055076904
28	0xbf6da01f	-0.9282245
29	0xbfbd146d	-1.4771858
30	0xbf827f29	-1.0195056
31	0x3e93bcb7	0.28854915
32	0xbf2f58b3	-0.6849472
33	0xbf10af1e	-0.5651721
34	0x3d1a4fb0	0.037673652
35	0xbd7cad82	-0.061688907
36	0x3cc22e68	0.023703769
37	0xbf2ea6ee	-0.68223464
38	0xbf600ea4	-0.8752234
39	0x3ebea676	0.37236375
40	0xbe02230a	-0.12708679
41	0x3ecb2e8c	0.3968395
42	0x3f4abfbf	0.7919883
43	0xbb962b19	-0.0045827744
44	0xbe7f72fa	-0.24946204
45	0xbf2a5413	-0.6653454
46	0x3e2761f0	0.16345954
47	0x3e93ef1f	0.28893372
48	0xbf099258	-0.5373893
49	0x3f852d1b	1.040439
50	0xbe174895	-0.14773782
51	0x3e962519	0.29325178
52	0xbef51f27	-0.4787533
53	0xbd6656c8	-0.056235105
54	0x3eee69cb	0.4656509
55	0x3d26aa2e	0.04068964
56	0x3eb0e20b	0.34547457
57	0xbe36aa66	-0.1783844
58	0xbf4ce6b8	-0.8003955
59	0xbf706041	-0.9389687
60	0xbd7e2c4b	-0.06205396
61	0xbf19b276	-0.60037935
62	0x3f1d7b70	0.61516476
63	0xbf40fd4c	-0.753865
64	0xbe8a4c1b	-0.2701119
65	0x3dbcb907	0.09214979
66	0x3fa43752	1.2829382
67	0x3b52b7ee	0.0032153088
68	0x3df537e0	0.11973548
69	0x3efdbc2b	0.49557623
70	0xbe363c63	-0.17796473
71	0x3ec8d4d2	0.3922487
72	0xbf13c843	-0.5772745
73	0x3e6f4a6b	0.23368232
74	0x3f8ef765	1.1169249
75	0x3e0afc4c	0.13572806
76	0x3dbe8a88	0.093037665
77	0x3f1217dd	0.5706766
78	0xbe90f363	-0.2831069
79	0x3e965744	0.29363453
80	0x3eba1cf5	0.36350217
81	0x3fc0ea62	1.5071528
82	0x3f232810	0.63733006
83	0xbe25e65e	-0.1620116
84	0x3f4dca15	0.8038648
85	0x3e6f311d	0.23358579
86	0xbc2fed00	-0.010737658
87	0xbf3d72a8	-0.74003077
88	0x3e0ded6f	0.13860105
89	0x3f58e4c0	0.84724045
90	0xbf1e606f	-0.61865896
91	0x3e03ca4c	0.12870139
92	0x3e6eeac2	0.2333174
93	0x3e1def81	0.15423395
94	0x3dc2d8fb	0.09514042
95	0x3f5dc92f	0.86635107
96	0x3ec53cc0	0.3852291
97	0x3fb0871f	1.3791236
98	0x3e6961ca	0.2279121
99	0xbe9dbc8c	-0.30807912
100	0x3e989b1c	0.2980584
101	0xbe678611	-0.22609736
102	0x3fc00bc0	1.5003586
103	0x3eaead1a	0.3411644
104	0xbf0153da	-0.5051857
105	0x3e304903	0.17215352
106	0x3f912345	1.1338888
107	0x3d6b02fa	0.057375886
108	0x3f5dfef7	0.8671717
109	0x3f92ebff	1.147827
110	0xbd83f6ec	-0.06443581
111	0x3e9969ef	0.29963633
112	0x3f8f3513	1.1188072
113	0xbded0a68	-0.115742505
114	0xbf6d15d8	-0.92611456
115	0x3d1a5afb	0.037684422
116	0x3fe5d4e0	1.7955589
117	0x3e7cd24d	0.24689598
118	0x3db46c32	0.08809699
119	0xbe1ac1c8	-0.15112984
120	0xbe003ebb	-0.1252393
121	0x3efc46d7	0.49272797
122	0x3f5cdb39	0.8627201
123	0x3f83e2f3	1.0303634
124	0x3e6261fb	0.22107689
125	0x3f1ca1a8	0.6118417
126	0xbb7f2a00	-0.0038934946
127	0x3c7878e4	0.015165541
128	0x3f2a4af5	0.66520625
129	0x3f1c1134	0.6096375
130	0xbf2d3d95	-0.6767209
131	0xbf99eae1	-1.2024804
132	0xbe1dfdbf	-0.15428828
133	0x3eea3b98	0.4574859
134	0x3e86ca41	0.26326182
135	0x3d9bd0f9	0.07608218
136	0x3f414ceb	0.7550799
137	0xbf63d85c	-0.89002013
138	0xbeec0156	-0.4609477
139	0x3f53f547	0.8279614
140	0x3f1f9985	0.6234363
141	0x3e753c0a	0.23948684
142	0x3fc4c7de	1.5373495
143	0xbf459e7e	-0.77194965
144	0x3ecd2119	0.40064314
145	0xbe50099f	-0.2031617
146	0xbdd788c9	-0.105241366
147	0xbf1159d6	-0.56777704
148	0x3e05118a	0.12994972
149	0xbe88184b	-0.26581034
150	0xbef273f7	-0.473541
151	0x3f335b0b	0.70060796
152	0x3f6f845c	0.9356134
153	0xbf364630	-0.7120085
154	0xbf6430e2	-0.8913709
155	0xbf1bd6c6	-0.60874593
156	0x3e4d54ce	0.20051882
157	0x3f067f6c	0.5253818
158	0xbe420999	-0.18948974
159	0x3e3864cd	0.18007202
160	0x3effac3b	0.4993609
161	0x3d23fba3	0.0400349
162	0xbe36d8e9	-0.17856182
163	0xbf24b75e	-0.64342296
164	0x3f39698c	0.72426677
165	0xbe5ff981	-0.21872522
166	0xbea27aed	-0.3173441
167	0x3f12f573	0.57405776
168	0xbf140209	-0.57815605
169	0xbdc5ee5f	-0.09664606
170	0x3df2eca8	0.11861545
171	0xbe863d75	-0.26218763
172	0xbd163391	-0.03667027
173	0x3e34be91	0.1765082
174	0xbe1a9dd6	-0.15099272
175	0xbef40098	-0.47656703
176	0x3e2e0ca4	0.1699701
177	0x3fb1de70	1.3896008
178	0xbe1bcae3	-0.15214114
179	0xbf088af5	-0.5333703
180	0x3ee56fdd	0.44811907
181	0x3f4e49d5	0.8058141
182	0xbe7225db	-0.23647253
183	0xbf01f2c5	-0.5076106
184	0x3ea5690e	0.32306713
185	0x3ea33847	0.31878874
186	0x3f87bcad	1.0604454
187	0x3f2d9fe8	0.6782212
188	0x3f3113e1	0.6917096
189	0x3d4b71bf	0.049669024
190	0x3efdb1cd	0.49549714
191	0xbdb0f831	-0.08641089
192	0xbe696ba2	-0.22794965
193	0x3f7a1e95	0.97702914
194	0xbeb31e20	-0.3498392
195	0x3f0f9ca3	0.56098384
196	0x3e87e6ed	0.2654337
197	0x3f0ae5ca	0.5425688
198	0x3f091324	0.5354483
199	0x3e8d8ba6	0.27645606
200	0x3fc0d1d9	1.506404
201	0xbea86045	-0.32885948
202	0xbf46fcbb	-0.77729386
203	0x3eaf213c	0.34205043
204	0x3f36ee03	0.7145693
205	0xbdcce785	-0.10005096
206	0xbe9e3770	-0.3090167
207	0x3ef26c99	0.47348478
208	0x3f01d62c	0.50717425
209	0xbe60d222	-0.2195516
210	0xbb2e2d2c	-0.0026577218
211	0x3d851eb7	0.06499999
212	0x3f13d096	0.5774015
213	0x3ebcac79	0.36850336
214	0x3e009db9	0.12560166
215	0x3f3876bf	0.7205619
216	0x3f96c7d6	1.1779735
217	0xbeb88865	-0.3604156
218	0xbe2b68dc	-0.1673922
219	0x3e93d413	0.28872737
220	0xbebd6f25	-0.3699886
221	0x3f349469	0.70538956
222	0xbcce1808	-0.025157943
223	0x3efa76b9	0.48918703
224	0x3f4bec42	0.79657376
225	0x3eda4717	0.42632362
226	0x3ea1e215	0.316178
227	0x3e079db3	0.13243751
228	0x3f299053	0.66235846
229	0xbee34be5	-0.4439384
230	0x3ec4b888	0.38422036
231	0x3e9f7812	0.31146294
232	0x3e049505	0.12947471
233	0x3e833a30	0.2563033
234	0x3f3b9002	0.73266613
235	0x3e5e6842	0.21719459
236	0xbe706024	-0.23474175
237	0x3f1a7996	0.60341775
238	0x3e3cc727	0.18435346
239	0xbee126c6	-0.43974894
240	0xbe7480d5	-0.2387727
241	0x3f69e1f6	0.91360414
242	0xbdfd0f3e	-0.12356423
243	0x3e1cb91d	0.1530499
244	0x3f3f9b0c	0.7484596
245	0x3f236203	0.6382143
246	0xbe4d37e7	-0.20040856
247	0x3e590306	0.2119256
248	0xbebd878a	-0.3701747
249	0x3f683561	0.9070645
250	0x3f5e1fbe	0.86767185
251	0x3e216336	0.15760502
252	0x3f46e06d	0.77686197
253	0xbe9badfc	-0.30406177
254	0x3f3a1da4	0.7270148
255	0x3ede95a7	0.4347355

net.3.bias f4 [64]
0	0xbea95d89	-0.33079174
1	0xbf27f9cd	-0.6561554
2	0x3d95701c	0.07296774
3	0xbf27ece1	-0.65595824
4	0x3e2190f3	0.1577795
5	0xbe2204b8	-0.15822113
6	0xbec2423c	-0.37941158
7	0xbd9855f7	-0.074382715
8	0xbe3d8674	-0.18508321
9	0x3d2d7d0f	0.042355593
10	0x3e3f5687	0.18685351
11	0xbf02edf8	-0.5114436
12	0x3e42ca25	0.19022425
13	0x3d9c6a76	0.07637493
14	0xbef71681	-0.48259357
15	0xbf31deb7	-0.6948046
16	0xbf00b1c5	-0.50271255
17	0xbe811d63	-0.25217733
18	0xbee35aa5	-0.44405094
19	0xbe1477f8	-0.1449889
20	0xbe9e3897	-0.3090255
21	0xbe87be11	-0.26512197
22	0x3e1f99e9	0.15586056
23	0x3ec523a2	0.38503748
24	0x3e4c5084	0.1995259
25	0xbc44fac1	-0.012022675
26	0xbf505289	-0.8137594
27	0x3debff15	0.115232624
28	0xbf48a00c	-0.7836921
29	0x3e47a422	0.19496205
30	0xbf022d25	-0.50850135
31	0x3dd13074	0.1021432
32	0xbd13369a	-0.035940744
33	0xbeeb78da	-0.4599064
34	0x3e362b42	0.17789939
35	0x3ca73250	0.020409733
36	0x3d964811	0.07337964
37	0xbf12b84c	-0.57312465
38	0xbe2699d2	-0.16269615
39	0x3c6acd5c	0.014331188
40	0xbc53debc	-0.012931522
41	0x3dfadd23	0.1224921
42	0xbdcd5e9a	-0.100278094
43	0xbdacd51a	-0.084390834
44	0xbecdcf78	-0.4019735
45	0xbecad9c6	-0.39619273
46	0x3cc7da71	0.024396153
47	0x3e53b08f	0.2067282
48	0xbec80d73	-0.3907276
49	0x3cea2533	0.028582191
50	0xbeb30b07	-0.3496935
51	0x3d66c7c3	0.05634285
52	0xbedf69a2	-0.4363528
53	0x3e0d7d7f	0.13817404
54	0x3d4b60bc	0.0496528
55	0xbf322a4e	-0.695958
56	0xbf52ab3f	-0.8229255
57	0xbf3b5497	-0.7317595
58	0xbea1101b	-0.314576
59	0xbeb380e7	-0.35059282
60	0x3d018919	0.031624887
61	0xbbc42829	-0.005986233
62	0xbe891e3a	-0.26780874
63	0xbb238e76	-0.002495674

net.6.weight f4 [5, 64]
0	0x3ea2a5d3	0.3176714
1	0xbfb6d9d7	-1.428523
2	0x3b8b4a20	0.0042507797
3	0xbd03caab	-0.0321757
4	0xbdfcfec4	-0.1235328
5	0xbfff6429	-1.9952441
6	0x3cbaec01	0.022817614
7	0xb99ca729	-0.00029879183
8	0x3db65347	0.08902603
9	0xbd506249	-0.050874982
10	0xbfb7c2c0	-1.4356308
11	0x3d9478dd	0.07249615
12	0xbe2b9eed	-0.16759844
13	0x3df5928d	0.11990843
14	0x3e325c76	0.17418084
15	0x3dcee10d	0.10101519
16	0xbe4838b7	-0.19552885
17	0xbfbf95c7	-1.4967583
18	0xbfafb139	-1.3725959
19	0x3cde1500	0.027109623
20	0x3ed94c90	0.42441225
21	0x3dae1985	0.08500961
22	0xbe54b2ed	-0.2077138
23	0xc00ec5f0	-2.2308311
24	0x3f23dab9	0.6400562
25	0xbe31158f	-0.1729338
26	0xbde8519a	-0.11343689
27	0x3d9066b6	0.070508406
28	0x3e282be7	0.16422997
29	0x3f3e12bd	0.7424734
30	0x3eb06cad	0.34457913
31	0x3d9aa66b	0.07551273
32	0xbd5267f2	-0.05136866
33	0xbfcecbec	-1.6155982
34	0xbcdac3e5	-0.026704738
35	0x3e0b00cd	0.13574524
36	0xbef7465a	-0.4829586
37	0x3e01755b	0.12642424
38	0xbf469637	-0.7757296
39	0xbf1cbc1d	-0.6122454
40	0xbfa5130a	-1.2896435
41	0xbc86ee8b	-0.016471168
42	0xbfb55edf	-1.4169577
43	0xc014ea1e	-2.3267894
44	0x3e699c27	0.22813474
45	0x3ee722ec	0.4514383
46	0xbff489b3	-1.9104522
47	0x3c5668b7	0.013086489
48	0x3d18be75	0.03729101
49	0xbb6bc4f7	-0.0035975554
50	0x3eaf4be5	0.3423759
51	0xc003336f	-2.0500143
52	0x3de4aa96	0.11165349
53	0xbf40752f	-0.7517881
54	0xbf2b2e97	-0.66867965
55	0x3d8ff91b	0.07029935
56	0x3d20a272	0.03921742
57	0x3ea57d5f	0.32322213
58	0x3deea89d	0.11653254
59	0x3e38e958	0.18057764
60	0x3e2fa7cd	0.17153855
61	0xbfe1127e	-1.7583768
62	0x3e400ec8	0.18755639
63	0xbfa5bd14	-1.2948327
64	0xbef3771e	-0.47551817
65	0xbd062530	-0.03275031
66	0xbe255619	-0.16146125
67	0x3d2489d8	0.04017052
68	0xbe2215ca	-0.15828624
69	0xbe08450d	-0.13307591
70	0xbf21507e	-0.63013446
71	0xbf1296f9	-0.57261616
72	0xbf60b498	-0.87775564
73	0xbe30da9d	-0.17270894
74	0x3c1bc4ed	0.0095074
75	0xbe8d5bcc	-0.27609098
76	0xbe84be49	-0.25926426
77	0xbe2cdf42	-0.16882041
78	0xbed8dcd7	-0.42355987
79	0xbef37c22	-0.47555643
80	0xbdba9872	-0.09111108
81	0xbe1e2ae7	-0.15446053
82	0x3d634b37	0.055491652
83	0xbca78880	-0.02045083
84	0xbf294e54	-0.66135144
85	0xbe93b600	-0.28849792
86	0xbd8a0d93	-0.0674087
87	0xbef23440	-0.4730549
88	0xbf59b74e	-0.85045326
89	0xbe0a9bf1	-0.1353605
90	0xbdb6f977	-0.089343004
91	0xbd768610	-0.060186446
92	0xbe60f005	-0.2196656
93	0xbf6c46c8	-0.92295504
94	0xbee628e6	-0.44953078
95	0xbe11b191	-0.14227892
96	0x3d95b895	0.07310597
97	0x3da904af	0.082528464
98	0xbe240bd7	-0.16020142
99	0xbf1a1f57	-0.6020407
100	0xbe3d6a8c	-0.18497676
101	0xbeaf7d6c	-0.34275377
102	0xbf4d1a5b	-0.8011834
103	0xbf4b5f11	-0.79441935
104	0xbd623fd0	-0.055236638
105	0xbd37b6cd	-0.044852067
106	0x3c09f7a0	0.008420855
107	0xbc1d94d0	-0.009617999
108	0xbf246389	-0.6421438
109	0xbf606346	-0.8765148
110	0xbd9caf8c	-0.076506704
111	0xbf6448dd	-0.8917368
112	0xbe832d37	-0.25620434
113	0xbe45edbb	-0.19328968
114	0xbf51a4c0	-0.81892014
115	0xbd932664	-0.07185057
116	0xbf31373d	-0.6922491
117	0xbe04fb18	-0.1298641
118	0xbf4ed14f	-0.8078813
119	0xbf1bb9c9	-0.6083036
120	0xbe67bf09	-0.22631468
121	0xbec48680	-0.38383865
122	0xbf25bb39	-0.64738804
123	0xbf0ff864	-0.5623839
124	0xbec3e25a	-0.3825863
125	0xbd82bcb8	-0.063836515
126	0xbf2458ae	-0.64197814
127	0x3b96e595	0.004605005
128	0xbf8f12bd	-1.1177593
129	0x3e4c19cf	0.1993172
130	0xbf1d7369	-0.61504227
131	0xbf3a252d	-0.72712976
132	0xbf26d975	-0.65175563
133	0xbe14ee4c	-0.14544028
134	0xbf23569b	-0.63804024
135	0x3e8421dd	0.25807086
136	0x3f287052	0.6579639
137	0xbf8b3e47	-1.087838
138	0xbfa0c42e	-1.2559869
139	0xbf85818b	-1.0430158
140	0xbebf9976	-0.3742177
141	0xbf8e2e8d	-1.1107956
142	0xbf7a5e4e	-0.9780015
143	0xbf51ff19	-0.82029873
144	0xbf810831	-1.0080625
145	0xbf22ead8	-0.63639593
146	0x3ce85741	0.028361918
147	0x3e3fdc8e	0.18736479
148	0xbf3d8cb8	-0.74042845
149	0x3e2b30f6	0.16717896
150	0xbf92eeea	-1.1479161
151	0x3f53ea6d	0.8277958
152	0xbf10cd84	-0.5656359
153	0xbf5d933e	-0.865528
154	0xbf1bd6fe	-0.6087493
155	0xbf555713	-0.8333599
156	0xbf6e8eb1	-0.9318648
157	0xbee41193	-0.44544658
158	0xbf749fca	-0.9555632
159	0xbf3dfaf6	-0.7421106
160	0x3dae4da7	0.08510905
161	0xbcde55f4	-0.027140595
162	0xbe83e1c0	-0.2575817
163	0x3e5ca69a	0.21547928
164	0xbe0ab56c	-0.1354577
165	0xbf87c12e	-1.0605829
166	0x3f7957fd	0.97399884
167	0x3f38523e	0.7200049
168	0x3d2e45d8	0.042547077
169	0xbe3e31ae	-0.18573639
170	0x3ddcaaef	0.107747905
171	0xbf6ecaf6	-0.93278444
172	0xbf23e845	-0.6402629
173	0xbf3cc557	-0.73738617
174	0xbe9a4e43	-0.30137834
175	0x3daee08c	0.08538923
176	0xbf8d5ca0	-1.1043892
177	0x3c9ab41f	0.018884717
178	0xbf7dca2f	-0.9913663
179	0xbf830e23	-1.0238689
180	0xbf091b39	-0.53557163
181	0xbe873f4a	-0.26415473
182	0x3f3513d2	0.7073337
183	0xbf2ea2be	-0.68217075
184	0xbf790b5c	-0.9728296
185	0xbf98164b	-1.1881803
186	0x3dc4322e	0.095798835
187	0xbf3891d8	-0.7209754
188	0x3dd34904	0.10316661
189	0xbf7df978	-0.99208784
190	0xbef8bf03	-0.4858323
191	0x3dcee74c	0.1010271
192	0xbffb54ad	-1.9635216
193	0xbe5c12e2	-0.21491578
194	0xbf91bdbf	-1.1386031
195	0xbf177893	-0.59168357
196	0xbeab9af9	-0.33516672
197	0xbec9e13e	-0.3942966
198	0xbf8fe4e2	-1.1241724
199	0xc0708156	-3.757894
200	0xc01a5d9b	-2.4119632
201	0xbdb14dfe	-0.08657454
202	0x3e2ef104	0.17084128
203	0xbfed0e09	-1.8519908
204	0xbfbd4e3a	-1.4789498
205	0xbe74cfbc	-0.2390737
206	0xbfc6c2a9	-1.5528156
207	0xbf9b1733	-1.2116455
208	0xbf9369be	-1.1516645
209	0xbebc7307	-0.3680651
210	0xbe4343df	-0.1906886
211	0xc01b1900	-2.4234009
212	0xbf9ebe98	-1.2401915
213	0xc073ce8a	-3.8094811
214	0xbf45569b	-0.77085274
215	0x3f937343	1.151955
216	0xbe5e2465	-0.21693571
217	0xbd442c24	-0.04789366
218	0xbfef8363	-1.8711971
219	0xbf9b7cf7	-1.2147511
220	0xbf73f58f	-0.9529657
221	0x3e6e73da	0.23286381
222	0xbf64c1c1	-0.89358145
223	0xbf947d83	-1.1600803
224	0xbfc59b39	-1.5437995
225	0xbe98cd88	-0.29844308
226	0xbf88074f	-1.062723
227	0xc04afee5	-3.1718075
228	0xbf7f7fe9	-0.9980455
229	0xbfa45e3e	-1.284126
230	0xbf91fb23	-1.1404766
231	0xbf2ce9cf	-0.67544264
232	0xbdc4a28f	-0.09601318
233	0xbf9f9a1e	-1.2468908
234	0xbbcaf618	-0.0061938874
235	0x3c8c22c0	0.017106414
236	0xc003a5c1	-2.0569918
237	0xbfdba71a	-1.716037
238	0x3d0dc2a9	0.03460947
239	0x3fa4548a	1.2838299
240	0xbf7a48b3	-0.9776718
241	0xc02479c8	-2.569933
242	0xbf779e9c	-0.96726394
243	0xbd07db04	-0.033167854
244	0xbf360c23	-0.7111227
245	0xbfad8065	-1.3554808
246	0xbfb8053a	-1.4376595
247	0xc01bb87b	-2.4331348
248	0xbffdb1ad	-1.9819847
249	0xbf74da3d	-0.95645505
250	0xc0260da7	-2.5945833
251	0xbf857545	-1.0426413
252	0xc05dc810	-3.4653358
253	0xbeb6200f	-0.35571334
254	0xbfd126c4	-1.6339955
255	0xbbd1db98	-0.0064043514

net.6.bias f4 [5]
0	0xbe2aa3fd	-0.16664119
1	0x3f4d18d3	0.80116004
2	0xbf8cc13d	-1.0996472
3	0x3e690f2c	0.22759694
4	0x3e7ae2f5	0.2450064
